…
#model.add(MaxPooling2D(pool_size=(2, 2))) #2x2x48
model.add(Dropout(0.1))
model.add(SeparableConvolution2D(10, 1, 1))  # 1x1x10
model.add(Activation('relu'))
model.add(BatchNormalization())
model.add(Dropout(0.15))
model.add(Flatten())
model.add(Activation('softmax'))
# Compile the model
model.compile(optimizer='adam', loss='categorical_crossentropy', metrics=['accuracy'])

Model: "sequential_10"
_________________________________________________________________
Layer (type)                 Output Shape              Param #   
=================================================================
separable_conv2d_74 (Separab (None, 32, 32, 48)        219       
_________________________________________________________________
activation_79 (Activation)   (None, 32, 32, 48)        0         
_________________________________________________________________
batch_normalization_73 (Batc (None, 32, 32, 48)        192       
_________________________________________________________________
separable_conv2d_75 (Separab (None, 30, 30, 48)        2784      
_________________________________________________________________
activation_80 (Activation)   (None, 30, 30, 48)        0         
_________________________________________________________________
batch_normalization_74 (Batc (None, 30, 30, 48)        192       
_________________________________________________________________
max_pooling2d_17 (MaxPooling (None, 15, 15, 48)        0         
_________________________________________________________________
separable_conv2d_76 (Separab (None, 15, 15, 96)        5136      
_________________________________________________________________
activation_81 (Activation)   (None, 15, 15, 96)        0         
_________________________________________________________________
batch_normalization_75 (Batc (None, 15, 15, 96)        384       
_________________________________________________________________
separable_conv2d_77 (Separab (None, 13, 13, 96)        10176     
_________________________________________________________________
activation_82 (Activation)   (None, 13, 13, 96)        0         
_________________________________________________________________
batch_normalization_76 (Batc (None, 13, 13, 96)        384       
_________________________________________________________________
separable_conv2d_78 (Separab (None, 11, 11, 192)       19488     
_________________________________________________________________
activation_83 (Activation)   (None, 11, 11, 192)       0         
_________________________________________________________________
batch_normalization_77 (Batc (None, 11, 11, 192)       768       
_________________________________________________________________
separable_conv2d_79 (Separab (None, 9, 9, 96)          20256     
_________________________________________________________________
activation_84 (Activation)   (None, 9, 9, 96)          0         
_________________________________________________________________
batch_normalization_78 (Batc (None, 9, 9, 96)          384       
_________________________________________________________________
separable_conv2d_80 (Separab (None, 7, 7, 96)          10176     
_________________________________________________________________
activation_85 (Activation)   (None, 7, 7, 96)          0         
_________________________________________________________________
batch_normalization_79 (Batc (None, 7, 7, 96)          384       
_________________________________________________________________
separable_conv2d_81 (Separab (None, 5, 5, 48)          5520      
_________________________________________________________________
activation_86 (Activation)   (None, 5, 5, 48)          0         
_________________________________________________________________
batch_normalization_80 (Batc (None, 5, 5, 48)          192       
_________________________________________________________________
dropout_44 (Dropout)         (None, 5, 5, 48)          0         
_________________________________________________________________
separable_conv2d_82 (Separab (None, 3, 3, 24)          1608      
_________________________________________________________________
activation_87 (Activation)   (None, 3, 3, 24)          0         
_________________________________________________________________
batch_normalization_81 (Batc (None, 3, 3, 24)          96        
_________________________________________________________________
separable_conv2d_83 (Separab (None, 1, 1, 12)          516       
_________________________________________________________________
activation_88 (Activation)   (None, 1, 1, 12)          0         
_________________________________________________________________
batch_normalization_82 (Batc (None, 1, 1, 12)          48        
_________________________________________________________________
dropout_45 (Dropout)         (None, 1, 1, 12)          0         
_________________________________________________________________
separable_conv2d_84 (Separab (None, 1, 1, 10)          142       
_________________________________________________________________
activation_89 (Activation)   (None, 1, 1, 10)          0         
_________________________________________________________________
batch_normalization_83 (Batc (None, 1, 1, 10)          40        
_________________________________________________________________
dropout_46 (Dropout)         (None, 1, 1, 10)          0         
_________________________________________________________________
flatten_9 (Flatten)          (None, 10)                0         
_________________________________________________________________
activation_90 (Activation)   (None, 10)                0         
=================================================================
Total params: 79,085
Trainable params: 77,553
Non-trainable params: 1,532
my 50 epoch logs:

Epoch 1/50
  2/390 [..............................] - ETA: 31s - loss: 0.8212 - acc: 0.7422/usr/local/lib/python3.6/dist-packages/ipykernel_launcher.py:12: UserWarning: The semantics of the Keras 2 argument `steps_per_epoch
…
